…
&lt;span class="nb"&gt;print&lt;/span&gt;&lt;span class="p"&gt;(&lt;/span&gt;&lt;span class="n"&gt;model&lt;/span&gt;&lt;span class="o"&gt;.&lt;/span&gt;&lt;span class="n"&gt;summary&lt;/span&gt;&lt;span class="p"&gt;())&lt;/span&gt;
&lt;/pre&gt;&lt;/div&gt;

    &lt;/div&gt;
&lt;/div&gt;
&lt;/div&gt;

&lt;div class="output_wrapper"&gt;
&lt;div class="output"&gt;


&lt;div class="output_area"&gt;

    &lt;div class="prompt"&gt;&lt;/div&gt;


&lt;div class="output_subarea output_stream output_stdout output_text"&gt;
&lt;pre&gt;Model: &amp;#34;sequential_2&amp;#34;
_________________________________________________________________
Layer (type)                 Output Shape              Param #   
=================================================================
conv2d_6 (Conv2D)            (None, 28, 28, 16)        160       
_________________________________________________________________
max_pooling2d_6 (MaxPooling2 (None, 14, 14, 16)        0         
_________________________________________________________________
conv2d_7 (Conv2D)            (None, 14, 14, 32)        4640      
_________________________________________________________________
max_pooling2d_7 (MaxPooling2 (None, 7, 7, 32)          0         
_________________________________________________________________
conv2d_8 (Conv2D)            (None, 7, 7, 64)          18496     
_________________________________________________________________
max_pooling2d_8 (MaxPooling2 (None, 3, 3, 64)          0         
_________________________________________________________________
dropout_6 (Dropout)          (None, 3, 3, 64)          0         
_________________________________________________________________
flatten_2 (Flatten)          (None, 576)               0         
_________________________________________________________________
dense_6 (Dense)              (None, 128)               73856     
_________________________________________________________________
dropout_7 (Dropout)          (None, 128)               0         
_________________________________________________________________
dense_7 (Dense)              (None, 64)                8256      
_________________________________________________________________
dropout_8 (Dropout)          (None, 64)                0         
_________________________________________________________________
dense_8 (Dense)              (None, 12)                780       
=================================================================
Total params: 106,188
Trainable params: 106,188
Non-trainable params: 0
_________________________________________________________________
None
&lt;/pre&gt;
&lt;/div&gt;
&lt;/div&gt;

&lt;/div&gt;
&lt;/div&gt;

&lt;/div&gt;
&lt;div class="cell border-box-sizing code_cell rendered"&gt;
&lt;div class="input"&gt;
&lt;div class="prompt input_prompt"&gt;In&amp;nbsp;[23]:&lt;/div&gt;
…
&lt;span class="n"&gt;learning_curves&lt;/span&gt;&lt;span class="p"&gt;(&lt;/span&gt;&lt;span class="n"&gt;history_1&lt;/span&gt;&lt;span class="p"&gt;)&lt;/span&gt;
&lt;/pre&gt;&lt;/div&gt;

    &lt;/div&gt;
&lt;/div&gt;
&lt;/div&gt;

&lt;div class="output_wrapper"&gt;
&lt;div class="output"&gt;


&lt;div class="output_area"&gt;

    &lt;div class="prompt"&gt;&lt;/div&gt;


&lt;div class="output_subarea output_stream output_stdout output_text"&gt;
&lt;pre&gt;Model: &amp;#34;sequential&amp;#34;
_________________________________________________________________
Layer (type)                 Output Shape              Param #   
=================================================================
dense (Dense)                (None, 128)               1179776   
_________________________________________________________________
dropout (Dropout)            (None, 128)               0         
_________________________________________________________________
dense_1 (Dense)              (None, 64)                8256      
_________________________________________________________________
dropout_1 (Dropout)          (None, 64)                0         
_________________________________________________________________
dense_2 (Dense)              (None, 30)                1950      
=================================================================
Total params: 1,189,982
Trainable params: 1,189,982
Non-trainable params: 0
_________________________________________________________________
Final loss of training data: 52.176904981381426
Final loss of validation data: 112.7545339281314
&lt;/pre&gt;
&lt;/div&gt;
&lt;/div&gt;

&lt;div class="output_area"&gt;

    &lt;div class="prompt"&gt;&lt;/div&gt;
…
&lt;span class="n"&gt;learning_curves&lt;/span&gt;&lt;span class="p"&gt;(&lt;/span&gt;&lt;span class="n"&gt;history_2&lt;/span&gt;&lt;span class="p"&gt;)&lt;/span&gt;
&lt;/pre&gt;&lt;/div&gt;

    &lt;/div&gt;
&lt;/div&gt;
&lt;/div&gt;

&lt;div class="output_wrapper"&gt;
&lt;div class="output"&gt;


&lt;div class="output_area"&gt;

    &lt;div class="prompt"&gt;&lt;/div&gt;


&lt;div class="output_subarea output_stream output_stdout output_text"&gt;
&lt;pre&gt;Model: &amp;#34;sequential_1&amp;#34;
_________________________________________________________________
Layer (type)                 Output Shape              Param #   
=================================================================
conv2d (Conv2D)              (None, 96, 96, 32)        288       
_________________________________________________________________
batch_normalization (BatchNo (None, 96, 96, 32)        128       
_________________________________________________________________
conv2d_1 (Conv2D)            (None, 96, 96, 32)        9216      
_________________________________________________________________
batch_normalization_1 (Batch (None, 96, 96, 32)        128       
_________________________________________________________________
max_pooling2d (MaxPooling2D) (None, 48, 48, 32)        0         
_________________________________________________________________
conv2d_2 (Conv2D)            (None, 48, 48, 64)        18432     
_________________________________________________________________
batch_normalization_2 (Batch (None, 48, 48, 64)        256       
_________________________________________________________________
conv2d_3 (Conv2D)            (None, 48, 48, 64)        36864     
_________________________________________________________________
max_pooling2d_1 (MaxPooling2 (None, 24, 24, 64)        0         
_________________________________________________________________
conv2d_4 (Conv2D)            (None, 24, 24, 96)        55296     
_________________________________________________________________
batch_normalization_3 (Batch (None, 24, 24, 96)        384       
_________________________________________________________________
conv2d_5 (Conv2D)            (None, 24, 24, 96)        82944     
_________________________________________________________________
batch_normalization_4 (Batch (None, 24, 24, 96)        384       
_________________________________________________________________
max_pooling2d_2 (MaxPooling2 (None, 12, 12, 96)        0         
_________________________________________________________________
conv2d_6 (Conv2D)            (None, 12, 12, 128)       110592    
_________________________________________________________________
batch_normalization_5 (Batch (None, 12, 12, 128)       512       
_________________________________________________________________
conv2d_7 (Conv2D)            (None, 12, 12, 128)       147456    
_________________________________________________________________
batch_normalization_6 (Batch (None, 12, 12, 128)       512       
_________________________________________________________________
max_pooling2d_3 (MaxPooling2 (None, 6, 6, 128)         0         
_________________________________________________________________
conv2d_8 (Conv2D)            (None, 6, 6, 256)         294912    
_________________________________________________________________
batch_normalization_7 (Batch (None, 6, 6, 256)         1024      
_________________________________________________________________
conv2d_9 (Conv2D)            (None, 6, 6, 256)         589824    
_________________________________________________________________
batch_normalization_8 (Batch (None, 6, 6, 256)         1024      
_________________________________________________________________
max_pooling2d_4 (MaxPooling2 (None, 3, 3, 256)         0         
_________________________________________________________________
conv2d_10 (Conv2D)           (None, 3, 3, 512)         1179648   
_________________________________________________________________
batch_normalization_9 (Batch (None, 3, 3, 512)         2048      
_________________________________________________________________
conv2d_11 (Conv2D)           (None, 3, 3, 512)         2359296   
_________________________________________________________________
batch_normalization_10 (Batc (None, 3, 3, 512)         2048      
_________________________________________________________________
flatten (Flatten)            (None, 4608)              0         
_________________________________________________________________
dense_3 (Dense)              (None, 512)               2359808   
_________________________________________________________________
dropout_2 (Dropout)          (None, 512)               0         
_________________________________________________________________
dense_4 (Dense)              (None, 30)                15390     
=================================================================
Total params: 7,268,414
Trainable params: 7,264,190
Non-trainable params: 4,224
_________________________________________________________________
Train on 1712 samples, validate on 428 samples
Epoch 1/25
1712/1712 - 64s - loss: 310.0069 - rmse: 17.6070 - val_loss: 390.5083 - val_rmse: 19.7613
Epoch 2/25
1712/1712 - 46s - loss: 44.4504 - rmse: 6.6671 - val_loss: 256.2662 - val_rmse: 16.0083
…
